…
        x = x.view(-1, 10)
        return F.log_softmax(x)
        
!pip install torchsummary
from torchsummary import summary
use_cuda = torch.cuda.is_available()
device = torch.device("cuda" if use_cuda else "cpu")
model = Net().to(device)
summary(model, input_size=(1, 28, 28))




Requirement already satisfied: torchsummary in /usr/local/lib/python3.6/dist-packages (1.5.1)
----------------------------------------------------------------
        Layer (type)               Output Shape         Param #
================================================================
            Conv2d-1           [-1, 16, 28, 28]             160
            Conv2d-2           [-1, 16, 28, 28]           2,320
       BatchNorm2d-3           [-1, 16, 28, 28]              32
           Dropout-4           [-1, 16, 28, 28]               0
         MaxPool2d-5           [-1, 16, 14, 14]               0
            Conv2d-6           [-1, 32, 14, 14]           4,640
            Conv2d-7           [-1, 32, 14, 14]           9,248
       BatchNorm2d-8           [-1, 32, 14, 14]              64
           Dropout-9           [-1, 32, 14, 14]               0
        MaxPool2d-10             [-1, 32, 7, 7]               0
           Conv2d-11             [-1, 64, 5, 5]          18,496
           Conv2d-12            [-1, 128, 3, 3]          73,856
        AvgPool2d-13            [-1, 128, 1, 1]               0
           Conv2d-14             [-1, 10, 1, 1]           1,290
================================================================
Total params: 110,106
Trainable params: 110,106
Non-trainable params: 0
----------------------------------------------------------------
Input size (MB): 0.00
Forward/backward pass size (MB): 0.63
Params size (MB): 0.42
Estimated Total Size (MB): 1.06
----------------------------------------------------------------
/usr/local/lib/python3.6/dist-packages/ipykernel_launcher.py:27: UserWarning: Implicit dimension choice for log_softmax has been deprecated. Change the call to include dim=X as an argument.
…
